…
Adding pool_stack4 (MaxPooling).
Adding data_9 (Data).
Adding conv0_stack5 (Convolution3d).
Adding data_10 (Data).
Adding conv0_stack6 (Convolution3d).
======================================================
      Summary of the network.
======================================================
____________________________________________________________________________________________
Layer (type)                             Output shape                 Parameters  
____________________________________________________________________________________________
data_10 (Data)                           (100, 1, 1, 300)                 0       
____________________________________________________________________________________________
data_9 (Data)                            (300, 1, 1, 300)                 0       
____________________________________________________________________________________________
data_8 (Data)                            (300, 2, 2, 280)                 0       
____________________________________________________________________________________________
data_7 (Data)                            (280, 1, 1, 280)                 0       
____________________________________________________________________________________________
data_6 (Data)                            (280, 2, 2, 260)                 0       
____________________________________________________________________________________________
data_5 (Data)                            (260, 1, 1, 260)                 0       
____________________________________________________________________________________________
data_4 (Data)                            (260, 2, 2, 240)                 0       
____________________________________________________________________________________________
data_3 (Data)                            (240, 1, 1, 240)                 0       
____________________________________________________________________________________________
data_2 (Data)                            (240, 3, 3, 192)                 0       
____________________________________________________________________________________________
data_1 (Data)                            (192, 1, 1, 192)                 0       
____________________________________________________________________________________________
data (Data)                              (192, 5, 5, 3)                   0       
____________________________________________________________________________________________
input (Data)                             (1, 32, 32, 3)                   0       
____________________________________________________________________________________________
conv0_stack0 (Convolution3d)             (1, 32, 32, 192)               14400     
____________________________________________________________________________________________
pool_stack0 (MaxPooling)                 (1, 16, 16, 192)                 0       
____________________________________________________________________________________________
conv0_stack1 (Convolution3d)             (1, 16, 16, 192)               36864     
____________________________________________________________________________________________
conv1_stack1 (Convolution3d)             (1, 16, 16, 240)               414720    
____________________________________________________________________________________________
pool_stack1 (MaxPooling)                 (1, 8, 8, 240)                   0       
____________________________________________________________________________________________
conv0_stack2 (Convolution3d)             (1, 8, 8, 240)                 57600     
____________________________________________________________________________________________
conv1_stack2 (Convolution3d)             (1, 8, 8, 260)                 249600    
____________________________________________________________________________________________
pool_stack2 (MaxPooling)                 (1, 4, 4, 260)                   0       
____________________________________________________________________________________________
conv0_stack3 (Convolution3d)             (1, 4, 4, 260)                 67600     
____________________________________________________________________________________________
conv1_stack3 (Convolution3d)             (1, 4, 4, 280)                 291200    
____________________________________________________________________________________________
pool_stack3 (MaxPooling)                 (1, 2, 2, 280)                   0       
____________________________________________________________________________________________
conv0_stack4 (Convolution3d)             (1, 2, 2, 280)                 78400     
____________________________________________________________________________________________
conv0_stack4_1 (Convolution3d)           (1, 2, 2, 300)                 336000    
____________________________________________________________________________________________
pool_stack4 (MaxPooling)                 (1, 1, 1, 300)                   0       
____________________________________________________________________________________________
conv0_stack5 (Convolution3d)             (1, 1, 1, 300)                 90000     
____________________________________________________________________________________________
conv0_stack6 (Convolution3d)             (1, 1, 1, 100)                 30000     
____________________________________________________________________________________________
======================================================
      Tiling operators of the network...
======================================================
Tiling conv0_stack0 (Convolution3d).
Tiling conv0_stack1 (Convolution3d).
Tiling conv0_stack2 (Convolution3d).
Tiling conv0_stack3 (Convolution3d).
Tiling conv0_stack4 (Convolution3d).
…
